deep-learning/gold-price-prediction-time-series-gru/gru-gold-price.pth (torch, 3780 bytes, 10 tensors)

gru.weight_ih_l0 f4 [12, 2]
0.8913394 0.73783416 0.5427799 0.31178766 1.1937833 0.27038363 0.5732374 1.2080802
1.4209423 0.9560436 -1.2659532 -1.8259257 0.98184997 0.76339716 -0.014405935 -0.26999986
0.38560644 0.5199198 -0.60564697 -0.7045057 1.0837086 0.5113933 -0.76658857 -0.7373904
00000000: d22e 643f b3e2 3c3f a0f3 0a3f a2a2 9f3e
00000010: e4cd 983f b96f 8a3e b0bf 123f 5fa2 9a3f
00000020: 70e1 b53f 46bf 743f c10a a2bf efb7 e9bf
00000030: 855a 7b3f ff6d 433f df06 6cbc 6c3d 8abe
00000040: 356e c53e 7719 053f ae0b 1bbf 7c5a 34bf
00000050: f7b6 8a3f acea 023f 263f 44bf 9ec5 3cbf

gru.weight_hh_l0 f4 [12, 4]
0.59322923 -2.0355332 4.643212 -0.8730393 0.1373424 0.6932519 0.52599764 -0.16316545
0.2531425 0.25938118 0.3893799 -1.1358713 -0.3552327 -1.2232308 0.8756048 -1.1574391
0.6922191 -1.7877035 0.25736648 -0.54995584 -0.76645553 -1.5411717 -0.7655596 -0.6644704
-0.78897864 -2.8875427 -1.180829 -1.1123832 0.014772511 1.9916857 2.132482 1.190342
-0.5605435 -0.99570006 0.53591913 -0.9962953 0.43223217 -0.24302898 0.013145048 1.1397635
-0.36165467 -0.52699167 -0.11064425 -2.407919 0.3483373 0.45060718 0.32293984 -0.88275874
00000000: dfdd 173f 2d46 02c0 3195 9440 817f 5fbf
00000010: 7ca3 0c3e f578 313f c8a7 063f d814 27be
00000020: e59b 813e 9ccd 843e cd5c c73e 3b64 91bf
00000030: 0fe1 b5be d492 9cbf a327 603f f726 94bf
00000040: 4535 313f 78d3 e4bf 8ac5 833e e8c9 0cbf
00000050: 6e36 44bf 1d45 c5bf b7fb 43bf bb1a 2abf
00000060: 81fa 49bf 80cd 38c0 6825 97bf 9362 8ebf
00000070: 6708 723c 8fef fe3f 967a 0840 205d 983f
00000080: c77f 0fbf 33e6 7ebf ff31 093f 350d 7fbf
00000090: 894d dd3e 97dc 78be 545e 573c c5e3 913f
000000a0: cd2a b9be ede8 06bf 7499 e2bd 581b 1ac0
000000b0: 4459 b23e fcb5 e63e 5f58 a53e 7afc 61bf

gru.bias_ih_l0 f4 [12]
0.25197598 0.25787377 1.2031518 -0.45481434 0.75430936 -1.231233 -0.7306404 -0.26534298
-0.0032904397 0.9642837 -0.34235066 0.06204403
00000000: ff02 813e 0808 843e e100 9a3f 6ddd e8be
00000010: 6b1a 413f 0b99 9dbf 400b 3bbf 09db 87be
00000020: 6ba4 57bb 4cdb 763f 9648 afbe e121 7e3d

gru.bias_hh_l0 f4 [12]
0.35986814 0.58689636 1.0933641 -0.421688 0.91041726 -1.9555004 -0.42293146 -0.40893957
-0.60354686 0.7001663 0.50642747 0.66616297
00000000: a340 b83e d73e 163f 5bf3 8b3f 7de7 d7be
00000010: 1b11 693f d64d fabf 798a d8be 8760 d1be
00000020: 0c82 1abf 193e 333f 3ba5 013f a889 2a3f

batchnorm.weight f4 [4]
0.1587268 0.22961964 -0.007706099 1.4402395
00000000: 4789 223e 6921 6b3e 7283 fcbb c559 b83f

batchnorm.bias f4 [4]
0.70970374 -0.58238465 0.45516875 0.641159
00000000: 25af 353f 2917 15bf e10b e93e ff22 243f

batchnorm.running_mean f4 [4]
-0.058299642 0.5638826 0.55308974 -0.084034264
00000000: 9bcb 6ebd 9c5a 103f 4a97 0d3f 281a acbd

batchnorm.running_var f4 [4]
0.048428 0.03700148 0.16094637 0.0069632046
00000000: 705c 463d dd8e 173d 20cf 243e 982b e43b

fc.weight f4 [2, 4]
-0.25265768 -0.59428155 0.32299578 -0.9657389 -0.08871874 -0.19758636 0.12744756 -1.0272704
00000000: 595c 81be d622 18bf b45f a53e aa3a 77bf
00000010: 2cb2 b5bd 1454 4abe 9d81 023e 997d 83bf

fc.bias f4 [2]
0.27633354 0.5037525
00000000: 977b 8d3e edf5 003f
